…
    "text": "모델 설계 1\n이때 n1=6, n2=16, n3=120 으로 설정한다, 드랍아웃비율은 20%로 설정한다.\n\nmodel  = Sequential()\n\nmodel.add(Conv2D(filters = 6, kernel_size = (5 ,5), input_shape = (28, 28, 1), padding = \"valid\")) ## 패딩은 \"valid\"가 기본값\nmodel.add(MaxPool2D(pool_size = (2,2),  padding = \"valid\")) ## 패딩과 pool_size는 입력한 값이 디폴트임\nmodel.add(Conv2D(16, (5, 5)))\nmodel.add(MaxPool2D())\nmodel.add(Flatten())\nmodel.add(Dense(120, activation = \"relu\"))\nmodel.add(Dropout(0.2))\nmodel.add(Dense(10, activation = \"softmax\"))\n\nmodel.compile(optimizer = Adam(0.001), loss = \"sparse_categorical_crossentropy\", metrics = [\"acc\"])\n\n\nmodel.summary()\n\nModel: \"sequential_9\"\n_________________________________________________________________\n Layer (type)                Output Shape              Param #   \n=================================================================\n conv2d_8 (Conv2D)           (None, 24, 24, 6)         156       \n                                                                 \n max_pooling2d_7 (MaxPoolin  (None, 12, 12, 6)         0         \n g2D)                                                            \n                                                                 \n conv2d_9 (Conv2D)           (None, 8, 8, 16)          2416      \n                                                                 \n max_pooling2d_8 (MaxPoolin  (None, 4, 4, 16)          0         \n g2D)                                                            \n                                                                 \n flatten_6 (Flatten)         (None, 256)               0         \n                                                                 \n dense_15 (Dense)            (None, 120)               30840     \n                                                                 \n dropout_3 (Dropout)         (None, 120)               0         \n                                                                 \n dense_16 (Dense)            (None, 10)                1210      \n                                                                 \n=================================================================\nTotal params: 34622 (135.24 KB)\nTrainable params: 34622 (135.24 KB)\nNon-trainable params: 0 (0.00 Byte)\n_________________________________________________________________"
  },
  {
    "objectID": "posts/advanced/2024-01-22-02.이미지_분류.html#모델-설계-2",
    "href": "posts/advanced/2024-01-22-02.이미지_분류.html#모델-설계-2",
…
= \"relu\"))\nmodel1.add( Dense(512, activation = \"relu\"))\nmodel1.add( BatchNormalization())\nmodel1.add( Dropout(0.25) )\n\nmodel1.add( Dense (10, activation = \"softmax\"))\n\n# 3. 모델 컴파일\nmodel1.compile(optimizer = \"adam\", loss = tf.keras.losses.categorical_crossentropy,\n               metrics = [\"accuracy\"])\n\n\nmodel1.summary()\n\nModel: \"sequential\"\n_________________________________________________________________\n Layer (type)                Output Shape              Param #   \n=================================================================\n flatten (Flatten)           (None, 784)               0         \n                                                                 \n dense (Dense)               (None, 1024)              803840    \n                                                                 \n dense_1 (Dense)             (None, 1024)              1049600   \n                                                                 \n batch_normalization (Batch  (None, 1024)              4096      \n Normalization)                                                  \n                                                                 \n dropout (Dropout)           (None, 1024)              0         \n                                                                 \n dense_2 (Dense)             (None, 512)               524800    \n                                                                 \n dense_3 (Dense)             (None, 512)               262656    \n                                                                 \n batch_normalization_1 (Bat  (None, 512)               2048      \n chNormalization)                                                \n                                                                 \n dropout_1 (Dropout)         (None, 512)               0         \n                                                                 \n dense_4 (Dense)             (None, 10)                5130      \n                                                                 \n=================================================================\nTotal params: 2652170 (10.12 MB)\nTrainable params: 2649098 (10.11 MB)\nNon-trainable params: 3072 (12.00 KB)\n_________________________________________________________________"
  },
  {
    "objectID": "posts/advanced/2024-01-08-04. MNIST.html#학습",
    "href": "posts/advanced/2024-01-08-04. MNIST.html#학습",
…
ation())\n\n# DropOut : 35% 비활성화\n\nmodel2.add( keras.layers.Dropout(0.35) )\n\n# 아웃풋레이어\nmodel2.add( keras.layers.Dense(10, activation = \"softmax\"))\n\nmodel2.compile(optimizer = \"adam\",\n                              loss = keras.losses.categorical_crossentropy,\n                              metrics = [\"accuracy\"])\nmodel2.summary()\n\nModel: \"sequential\"\n_________________________________________________________________\n Layer (type)                Output Shape              Param #   \n=================================================================\n conv2d (Conv2D)             (None, 28, 28, 28)        280       \n                                                                 \n conv2d_1 (Conv2D)           (None, 28, 28, 28)        7084      \n                                                                 \n batch_normalization (Batch  (None, 28, 28, 28)        112       \n Normalization)                                                  \n                                                                 \n max_pooling2d (MaxPooling2  (None, 14, 14, 28)        0         \n D)                                                              \n                                                                 \n dropout (Dropout)           (None, 14, 14, 28)        0         \n                                                                 \n flatten (Flatten)           (None, 5488)              0         \n                                                                 \n dense (Dense)               (None, 1024)              5620736   \n                                                                 \n batch_normalization_1 (Bat  (None, 1024)              4096      \n chNormalization)                                                \n                                                                 \n dropout_1 (Dropout)         (None, 1024)              0         \n                                                                 \n dense_1 (Dense)             (None, 10)                10250     \n                                                                 \n=================================================================\nTotal params: 5642558 (21.52 MB)\nTrainable params: 5640454 (21.52 MB)\nNon-trainable params: 2104 (8.22 KB)\n_________________________________________________________________"
  },
  {
    "objectID": "posts/advanced/2024-01-08-04. MNIST.html#모델-학습",
    "href": "posts/advanced/2024-01-08-04. MNIST.html#모델-학습",
…
del = tf.keras.models.Sequential()\nmodel.add(tf.keras.layers.Dense(4, activation = \"relu\", input_shape = (nf,)))\nmodel.add(tf.keras.layers.Dropout(0.3))\nmodel.add(tf.keras.layers.Dense(3, activation = \"relu\"))\nmodel.add(tf.keras.layers.Dropout(0.3))\nmodel.add(tf.keras.layers.Dense(1, activation = \"sigmoid\"))\n\n\nmodel.summary()\n\nModel: \"sequential_6\"\n_________________________________________________________________\n Layer (type)                Output Shape              Param #   \n=================================================================\n dense_15 (Dense)            (None, 4)                 108       \n                                                                 \n dropout (Dropout)           (None, 4)                 0         \n                                                                 \n dense_16 (Dense)            (None, 3)                 15        \n                                                                 \n dropout_1 (Dropout)         (None, 3)                 0         \n                                                                 \n dense_17 (Dense)            (None, 1)                 4         \n                                                                 \n=================================================================\nTotal params: 127 (508.00 Byte)\nTrainable params: 127 (508.00 Byte)\nNon-trainable params: 0 (0.00 Byte)\n_________________________________________________________________\n\n\n- 아래의 요구사항대로 모델을 컴파일\n\n# - 옵티마이저 : 'adam'\n# - 손실 함수 : 'binary_crossentropy'
…
    "text": "DNN 구현 2\n- 아래의 요구사항대로 모델을 설계\n\n# 39개 input layer\n# unit 5개 hidden layer\n# dropout\n# unit 4개 hidden layer\n# dropout\n# 2개 output layser : 다중분류\n# epochs : 20번\n# batch_size : 16번\n\nmodel = tf.keras.models.Sequential()\n\nmodel.add(tf.keras.layers.Dense(5, activation = \"relu\", input_shape = (nf,)))\nmodel.add(tf.keras.layers.Dropout(0.3))\nmodel.add(tf.keras.layers.Dense(4, activation  = \"relu\"))\nmodel.add(tf.keras.layers.Dropout(0.3))\nmodel.add(tf.keras.layers.Dense(2, activation = \"softmax\"))\n\n\nmodel.summary()\n\nModel: \"sequential_7\"\n_________________________________________________________________\n Layer (type)                Output Shape              Param #   \n=================================================================\n dense_18 (Dense)            (None, 5)                 135       \n                                                                 \n dropout_2 (Dropout)         (None, 5)                 0         \n                                                                 \n dense_19 (Dense)            (None, 4)                 24        \n                                                                 \n dropout_3 (Dropout)         (None, 4)                 0         \n                                                                 \n dense_20 (Dense)            (None, 2)                 10        \n                                                                 \n=================================================================\nTotal params: 169 (676.00 Byte)\nTrainable params: 169 (676.00 Byte)\nNon-trainable params: 0 (0.00 Byte)\n_________________________________________________________________\n\n\n\n아래 요구사항대로 모델 학습 시키기\n\nmodel.compile(loss = tf.keras.losses.sparse_categoric
…
