…
g data from https://storage.googleapis.com/tensorflow/keras-applications/vgg16/vgg16_weights_tf_dim_ordering_tf_kernels.h5\n553467096/553467096 [==============================] - 25s 0us/step\n\n\n\nmodel.summary()\n\nModel: \"vgg16\"\n_________________________________________________________________\n Layer (type)                Output Shape              Param #   \n=================================================================\n input_1 (InputLayer)        [(None, 224, 224, 3)]     0         \n                                                                 \n block1_conv1 (Conv2D)       (None, 224, 224, 64)      1792      \n                                                                 \n block1_conv2 (Conv2D)       (None, 224, 224, 64)      36928     \n                                                                 \n block1_pool (MaxPooling2D)  (None, 112, 112, 64)      0         \n                                                                 \n block2_conv1 (Conv2D)       (None, 112, 112, 128)     73856     \n                                                                 \n block2_conv2 (Conv2D)       (None, 112, 112, 128)     147584    \n                                                                 \n block2_pool (MaxPooling2D)  (None, 56, 56, 128)       0         \n                                                                 \n block3_conv1 (Conv2D)       (None, 56, 56, 256)       295168    \n                                                                 \n block3_conv2 (Conv2D)       (None, 56, 56, 256)       590080    \n                                                                 \n block3_conv3 (Conv2D)       (None, 56, 56, 256)       590080    \n                                                                 \n block3_pool (MaxPooling2D)  (None, 28, 28, 256)       0         \n                                                                 \n block4_conv1 (Conv2D)       (None, 28, 28, 512)       1180160   \n                                                                 \n block4_conv2 (Conv2D)       (None, 28, 28, 512)       2359808   \n                                                                 \n block4_conv3 (Conv2D)       (None, 28, 28, 512)       2359808   \n                                                                 \n block4_pool (MaxPooling2D)  (None, 14, 14, 512)       0         \n                                                                 \n block5_conv1 (Conv2D)       (None, 14, 14, 512)       2359808   \n                                                                 \n block5_conv2 (Conv2D)       (None, 14, 14, 512)       2359808   \n                                                                 \n block5_conv3 (Conv2D)       (None, 14, 14, 512)       2359808   \n                                                                 \n block5_pool (MaxPooling2D)  (None, 7, 7, 512)         0         \n                                                                 \n flatten (Flatten)           (None, 25088)             0         \n                                                                 \n fc1 (Dense)                 (None, 4096)              102764544 \n                                                                 \n fc2 (Dense)                 (None, 4096)              16781312  \n                                                                 \n predictions (Dense)         (None, 1000)              4097000   \n                                                                 \n=================================================================\nTotal params: 138357544 (527.79 MB)\nTrainable params: 138357544 (527.79 MB)\nNon-trainable params: 0 (0.00 Byte)\n_________________________________________________________________\n\n\n\nfrom tensorflow.keras.utils import plot_model\n\n\nplot_model(model, show_shapes=True, show_layer_names=True)\n\n\n\n\n\n아웃풋 레이어를 보면 노드가 1000개!\n분류 가능한 이미지가 1000개라는 뜻!\n구경하러 가자"
…
ctivation='softmax')(hl)\n\n# 3. 모델 시작과 끝 지정\nmodel = Model(il, ol)\n\n# 4. 컴파일\nmodel.compile(optimizer='adam', loss=keras.losses.categorical_crossentropy,\n              metrics=['accuracy'])\n\n\nmodel.summary()\n\nModel: \"model\"\n_________________________________________________________________\n Layer (type)                Output Shape              Param #   \n=================================================================\n input_1 (InputLayer)        [(None, 32, 32, 3)]       0         \n                                                                 \n conv2d (Conv2D)             (None, 32, 32, 64)        1792      \n                                                                 \n conv2d_1 (Conv2D)           (None, 32, 32, 64)        36928     \n                                                                 \n max_pooling2d (MaxPooling2  (None, 16, 16, 64)        0         \n D)                                                              \n                                                                 \n batch_normalization (Batch  (None, 16, 16, 64)        256       \n Normalization)                                                  \n                                                                 \n dropout (Dropout)           (None, 16, 16, 64)        0         \n                                                                 \n conv2d_2 (Conv2D)           (None, 16, 16, 128)       73856     \n                                                                 \n conv2d_3 (Conv2D)           (None, 16, 16, 128)       147584    \n                                                                 \n max_pooling2d_1 (MaxPoolin  (None, 8, 8, 128)         0         \n g2D)                                                            \n                                                                 \n batch_normalization_1 (Bat  (None, 8, 8, 128)         512       \n chNormalization)                                                \n                                                                 \n dropout_1 (Dropout)         (None, 8, 8, 128)         0         \n                                                                 \n flatten (Flatten)           (None, 8192)              0         \n                                                                 \n dense (Dense)               (None, 1024)              8389632   \n                                                                 \n dense_1 (Dense)             (None, 100)               102500    \n                                                                 \n=================================================================\nTotal params: 8753060 (33.39 MB)\nTrainable params: 8752676 (33.39 MB)\nNon-trainable params: 384 (1.50 KB)\n_________________________________________________________________\n\n\n\nEarly Stopping\n\n\nfrom tensorflow.keras.callbacks import EarlyStopping\n\n\n
…
ers.BatchNormalization() )\n# DropOut : 35% 비활성화\nmodel1.add( keras.layers.Dropout(0.35) )\n# 아웃풋레이어\nmodel1.add( keras.layers.Dense(10, activation='softmax') )\n\n# 4. 컴파일\nmodel1.compile(optimizer='adam',\n               loss=keras.losses.categorical_crossentropy,\n               metrics=['accuracy']\n               )\n\n\nmodel1.summary()\n\nModel: \"sequential\"\n_________________________________________________________________\n Layer (type)                Output Shape              Param #   \n=================================================================\n conv2d (Conv2D)             (None, 32, 32, 32)        896       \n                                                                 \n conv2d_1 (Conv2D)           (None, 32, 32, 32)        9248      \n                                                                 \n batch_normalization (Batch  (None, 32, 32, 32)        128       \n Normalization)                                                  \n                                                                 \n max_pooling2d (MaxPooling2  (None, 16, 16, 32)        0         \n D)                                                              \n                                                                 \n dropout (Dropout)           (None, 16, 16, 32)        0         \n                                                                 \n conv2d_2 (Conv2D)           (None, 16, 16, 64)        18496     \n                                                                 \n conv2d_3 (Conv2D)           (None, 16, 16, 64)        36928     \n                                                                 \n batch_normalization_1 (Bat  (None, 16, 16, 64)        256       \n chNormalization)                                                \n                                                                 \n max_pooling2d_1 (MaxPoolin  (None, 8, 8, 64)          0         \n g2D)                                                            \n                                                                 \n dropout_1 (Dropout)         (None, 8, 8, 64)          0         \n                                                                 \n flatten (Flatten)           (None, 4096)              0         \n                                                                 \n dense (Dense)               (None, 1024)              4195328   \n                                                                 \n batch_normalization_2 (Bat  (None, 1024)              4096      \n chNormalization)                                                \n                                                                 \n dropout_2 (Dropout)         (None, 1024)              0         \n                                                                 \n dense_1 (Dense)             (None, 10)                10250     \n                                                                 \n=================================================================\nTotal params: 4275626 (16.31 MB)\nTrainable params: 4273386 (16.30 MB)\nNon-trainable params: 2240 (8.75 KB)\n_________________________________________________________________\n\n\n\nfrom tensorflow.keras.backend import clear_session\nfrom tensorflow.keras.mo
…
del = tf.keras.models.Sequential()\nmodel.add(tf.keras.layers.Dense(4, activation = \"relu\", input_shape = (nf,)))\nmodel.add(tf.keras.layers.Dropout(0.3))\nmodel.add(tf.keras.layers.Dense(3, activation = \"relu\"))\nmodel.add(tf.keras.layers.Dropout(0.3))\nmodel.add(tf.keras.layers.Dense(1, activation = \"sigmoid\"))\n\n\nmodel.summary()\n\nModel: \"sequential_6\"\n_________________________________________________________________\n Layer (type)                Output Shape              Param #   \n=================================================================\n dense_15 (Dense)            (None, 4)                 108       \n                                                                 \n dropout (Dropout)           (None, 4)                 0         \n                                                                 \n dense_16 (Dense)            (None, 3)                 15        \n                                                                 \n dropout_1 (Dropout)         (None, 3)                 0         \n                                                                 \n dense_17 (Dense)            (None, 1)                 4         \n                                                                 \n=================================================================\nTotal params: 127 (508.00 Byte)\nTrainable params: 127 (508.00 Byte)\nNon-trainable params: 0 (0.00 Byte)\n_________________________________________________________________\n\n\n- 아래의 요구사항대로 모델을 컴파일\n\n# - 옵티마이저 : 'adam'\n# - 손실 함수 : 'binary_crossentropy'
…
    "text": "DNN 구현 2\n- 아래의 요구사항대로 모델을 설계\n\n# 39개 input layer\n# unit 5개 hidden layer\n# dropout\n# unit 4개 hidden layer\n# dropout\n# 2개 output layser : 다중분류\n# epochs : 20번\n# batch_size : 16번\n\nmodel = tf.keras.models.Sequential()\n\nmodel.add(tf.keras.layers.Dense(5, activation = \"relu\", input_shape = (nf,)))\nmodel.add(tf.keras.layers.Dropout(0.3))\nmodel.add(tf.keras.layers.Dense(4, activation  = \"relu\"))\nmodel.add(tf.keras.layers.Dropout(0.3))\nmodel.add(tf.keras.layers.Dense(2, activation = \"softmax\"))\n\n\nmodel.summary()\n\nModel: \"sequential_7\"\n_________________________________________________________________\n Layer (type)                Output Shape              Param #   \n=================================================================\n dense_18 (Dense)            (None, 5)                 135       \n                                                                 \n dropout_2 (Dropout)         (None, 5)                 0         \n                                                                 \n dense_19 (Dense)            (None, 4)                 24        \n                                                                 \n dropout_3 (Dropout)         (None, 4)                 0         \n                                                                 \n dense_20 (Dense)            (None, 2)                 10        \n                                                                 \n=================================================================\nTotal params: 169 (676.00 Byte)\nTrainable params: 169 (676.00 Byte)\nNon-trainable params: 0 (0.00 Byte)\n_________________________________________________________________\n\n\n\n아래 요구사항대로 모델 학습 시키기\n\nmodel.compile(loss = tf.keras.losses.sparse_categoric
…
    "text": "모델 설계 1\n이때 n1=6, n2=16, n3=120 으로 설정한다, 드랍아웃비율은 20%로 설정한다.\n\nmodel  = Sequential()\n\nmodel.add(Conv2D(filters = 6, kernel_size = (5 ,5), input_shape = (28, 28, 1), padding = \"valid\")) ## 패딩은 \"valid\"가 기본값\nmodel.add(MaxPool2D(pool_size = (2,2),  padding = \"valid\")) ## 패딩과 pool_size는 입력한 값이 디폴트임\nmodel.add(Conv2D(16, (5, 5)))\nmodel.add(MaxPool2D())\nmodel.add(Flatten())\nmodel.add(Dense(120, activation = \"relu\"))\nmodel.add(Dropout(0.2))\nmodel.add(Dense(10, activation = \"softmax\"))\n\nmodel.compile(optimizer = Adam(0.001), loss = \"sparse_categorical_crossentropy\", metrics = [\"acc\"])\n\n\nmodel.summary()\n\nModel: \"sequential_9\"\n_________________________________________________________________\n Layer (type)                Output Shape              Param #   \n=================================================================\n conv2d_8 (Conv2D)           (None, 24, 24, 6)         156       \n                                                                 \n max_pooling2d_7 (MaxPoolin  (None, 12, 12, 6)         0         \n g2D)                                                            \n                                                                 \n conv2d_9 (Conv2D)           (None, 8, 8, 16)          2416      \n                                                                 \n max_pooling2d_8 (MaxPoolin  (None, 4, 4, 16)          0         \n g2D)                                                            \n                                                                 \n flatten_6 (Flatten)         (None, 256)               0         \n                                                                 \n dense_15 (Dense)            (None, 120)               30840     \n                                                                 \n dropout_3 (Dropout)         (None, 120)               0         \n                                                                 \n dense_16 (Dense)            (None, 10)                1210      \n                                                                 \n=================================================================\nTotal params: 34622 (135.24 KB)\nTrainable params: 34622 (135.24 KB)\nNon-trainable params: 0 (0.00 Byte)\n_________________________________________________________________"
  },
  {
    "objectID": "posts/advanced/2023-01-22-02. 이미지_분류.html#모델-설계-2",
    "href": "posts/advanced/2023-01-22-02. 이미지_분류.html#모델-설계-2",
…
= \"relu\"))\nmodel1.add( Dense(512, activation = \"relu\"))\nmodel1.add( BatchNormalization())\nmodel1.add( Dropout(0.25) )\n\nmodel1.add( Dense (10, activation = \"softmax\"))\n\n# 3. 모델 컴파일\nmodel1.compile(optimizer = \"adam\", loss = tf.keras.losses.categorical_crossentropy,\n               metrics = [\"accuracy\"])\n\n\nmodel1.summary()\n\nModel: \"sequential\"\n_________________________________________________________________\n Layer (type)                Output Shape              Param #   \n=================================================================\n flatten (Flatten)           (None, 784)               0         \n                                                                 \n dense (Dense)               (None, 1024)              803840    \n                                                                 \n dense_1 (Dense)             (None, 1024)              1049600   \n                                                                 \n batch_normalization (Batch  (None, 1024)              4096      \n Normalization)                                                  \n                                                                 \n dropout (Dropout)           (None, 1024)              0         \n                                                                 \n dense_2 (Dense)             (None, 512)               524800    \n                                                                 \n dense_3 (Dense)             (None, 512)               262656    \n                                                                 \n batch_normalization_1 (Bat  (None, 512)               2048      \n chNormalization)                                                \n                                                                 \n dropout_1 (Dropout)         (None, 512)               0         \n                                                                 \n dense_4 (Dense)             (None, 10)                5130      \n                                                                 \n=================================================================\nTotal params: 2652170 (10.12 MB)\nTrainable params: 2649098 (10.11 MB)\nNon-trainable params: 3072 (12.00 KB)\n_________________________________________________________________"
  },
  {
    "objectID": "posts/advanced/2023-01-25-05. MNIST.html#학습",
    "href": "posts/advanced/2023-01-25-05. MNIST.html#학습",
…
ation())\n\n# DropOut : 35% 비활성화\n\nmodel2.add( keras.layers.Dropout(0.35) )\n\n# 아웃풋레이어\nmodel2.add( keras.layers.Dense(10, activation = \"softmax\"))\n\nmodel2.compile(optimizer = \"adam\",\n                              loss = keras.losses.categorical_crossentropy,\n                              metrics = [\"accuracy\"])\nmodel2.summary()\n\nModel: \"sequential\"\n_________________________________________________________________\n Layer (type)                Output Shape              Param #   \n=================================================================\n conv2d (Conv2D)             (None, 28, 28, 28)        280       \n                                                                 \n conv2d_1 (Conv2D)           (None, 28, 28, 28)        7084      \n                                                                 \n batch_normalization (Batch  (None, 28, 28, 28)        112       \n Normalization)                                                  \n                                                                 \n max_pooling2d (MaxPooling2  (None, 14, 14, 28)        0         \n D)                                                              \n                                                                 \n dropout (Dropout)           (None, 14, 14, 28)        0         \n                                                                 \n flatten (Flatten)           (None, 5488)              0         \n                                                                 \n dense (Dense)               (None, 1024)              5620736   \n                                                                 \n batch_normalization_1 (Bat  (None, 1024)              4096      \n chNormalization)                                                \n                                                                 \n dropout_1 (Dropout)         (None, 1024)              0         \n                                                                 \n dense_1 (Dense)             (None, 10)                10250     \n                                                                 \n=================================================================\nTotal params: 5642558 (21.52 MB)\nTrainable params: 5640454 (21.52 MB)\nNon-trainable params: 2104 (8.22 KB)\n_________________________________________________________________"
  },
  {
    "objectID": "posts/advanced/2023-01-25-05. MNIST.html#모델-학습",
    "href": "posts/advanced/2023-01-25-05. MNIST.html#모델-학습",
…
nse(10, activation='softmax')(hl)\n\n# 3. 모델의 시작과 끝 지정\nmodel2 = Model(il, ol)\n\n# 4. 컴파일\nmodel2.compile(optimizer='adam', loss='categorical_crossentropy',\n              metrics=['accuracy'])\n\nmodel2.summary()\n\nModel: \"model\"\n_________________________________________________________________\n Layer (type)                Output Shape              Param #   \n=================================================================\n input_1 (InputLayer)        [(None, 28, 28, 1)]       0         \n                                                                 \n conv2d (Conv2D)             (None, 28, 28, 64)        640       \n                                                                 \n conv2d_1 (Conv2D)           (None, 28, 28, 64)        36928     \n                                                                 \n max_pooling2d (MaxPooling2  (None, 14, 14, 64)        0         \n D)                                                              \n                                                                 \n batch_normalization (Batch  (None, 14, 14, 64)        256       \n Normalization)                                                  \n                                                                 \n dropout (Dropout)           (None, 14, 14, 64)        0         \n                                                                 \n conv2d_2 (Conv2D)           (None, 14, 14, 128)       73856     \n                                                                 \n conv2d_3 (Conv2D)           (None, 14, 14, 128)       147584    \n                                                                 \n max_pooling2d_1 (MaxPoolin  (None, 7, 7, 128)         0         \n g2D)                                                            \n                                                                 \n batch_normalization_1 (Bat  (None, 7, 7, 128)         512       \n chNormalization)                                                \n                                                                 \n dropout_1 (Dropout)         (None, 7, 7, 128)         0         \n                                                                 \n flatten (Flatten)           (None, 6272)              0         \n                                                                 \n dense (Dense)               (None, 256)               1605888   \n                                                                 \n dense_1 (Dense)             (None, 10)                2570      \n                                                                 \n=================================================================\nTotal params: 1868234 (7.13 MB)\nTrainable params: 1867850 (7.13 MB)\nNon-trainable params: 384 (1.50 KB)\n_________________________________________________________________\n\n\n\nEarly Stopping\n\n\nes = EarlyStopping(monitor='val_loss',         # 얼리 스토핑을 적
…
) )\nmodel1.add( Dense(128, activation='relu') )\nmodel1.add( BatchNormalization() )\nmodel1.add( Dropout(0.25) )\nmodel1.add( Dense(10, activation='softmax') )\n\n# 4. 컴파일\nmodel1.compile(optimizer='adam',\n               loss=keras.losses.categorical_crossentropy,\n               metrics=['accuracy']\n               )\n\n\nmodel1.summary()\n\nModel: \"sequential\"\n_________________________________________________________________\n Layer (type)                Output Shape              Param #   \n=================================================================\n flatten (Flatten)           (None, 784)               0         \n                                                                 \n dense (Dense)               (None, 1024)              803840    \n                                                                 \n dense_1 (Dense)             (None, 1024)              1049600   \n                                                                 \n batch_normalization (Batch  (None, 1024)              4096      \n Normalization)                                                  \n                                                                 \n dropout (Dropout)           (None, 1024)              0         \n                                                                 \n dense_2 (Dense)             (None, 512)               524800    \n                                                                 \n dense_3 (Dense)             (None, 512)               262656    \n                                                                 \n batch_normalization_1 (Bat  (None, 512)               2048      \n chNormalization)                                                \n                                                                 \n dropout_1 (Dropout)         (None, 512)               0         \n                                                                 \n dense_4 (Dense)             (None, 256)               131328    \n                                                                 \n dense_5 (Dense)             (None, 128)               32896     \n                                                                 \n batch_normalization_2 (Bat  (None, 128)               512       \n chNormalization)                                                \n                                                                 \n dropout_2 (Dropout)         (None, 128)               0         \n                                                                 \n dense_6 (Dense)             (None, 10)                1290      \n                                                                 \n=================================================================\nTotal params: 2813066 (10.73 MB)\nTrainable params: 2809738 (10.72 MB)\nNon-trainable params: 3328 (13.00 KB)\n_________________________________________________________________\n\n\n\n## Functional API\n# 1. 세션 클리어 : 청소\nclear_session()\n\n# 2. 레이어를 사슬처럼 엮기\
…
0968 [==============================] - 0s 0us/step\nModel: \"model\"\n__________________________________________________________________________________________________\n Layer (type)                Output Shape                 Param #   Connected to                  \n==================================================================================================\n input_1 (InputLayer)        [(None, 299, 299, 3)]        0         []                            \n                                                                                                  \n conv2d (Conv2D)             (None, 149, 149, 32)         864       ['input_1[0][0]']             \n                                                                                                  \n batch_normalization (Batch  (None, 149, 149, 32)         96        ['conv2d[0][0]']              \n Normalization)                                                                                   \n                                                                                                  \n activation (Activation)     (None, 149, 149, 32)         0         ['batch_normalization[0][0]'] \n                                                                                                  \n conv2d_1 (Conv2D)           (None, 147, 147, 32)         9216      ['activation[0][0]']          \n                                                                                                  \n batch_normalization_1 (Bat  (None, 147, 147, 32)         96        ['conv2d_1[0][0]']            \n chNormalization)                                                                                 \n                                                                                                  \n activation_1 (Activation)   (None, 147, 147, 32)         0         ['batch_normalization_1[0][0]'\n                                                                    ]                             \n                                                                                                  \n conv2d_2 (Conv2D)           (None, 147, 147, 64)         18432     ['activation_1[0][0]']        \n                                                                                                  \n batch_normalization_2 (Bat  (None, 147, 147, 64)         192       ['conv2d_2[0][0]']            \n chNormalization)                                                                                 \n                                                                                                  \n activation_2 (Activation)   (None, 147, 147, 64)         0         ['batch_normalization_2[0][0]'\n                                                                    ]                             \n                                                                                                  \n max_pooling2d (MaxPooling2  (None, 73, 73, 64)           0         ['activation_2[0][0]']        \n D)                                                                                               \n                                                                                                  \n conv2d_3 (Conv2D)           (None, 73, 73, 80)           5120      ['max_pooling2d[0][0]']       \n                                                                                                  \n batch_normalization_3 (Bat  (None, 73, 73, 80)           240       ['conv2d_3[0][0]']            \n chNormalization)                                                                                 \n                                                                                                  \n activation_3 (Activation)   (None, 73, 73, 80)           0         ['batch_normalization_3[0][0]'\n                                                                    ]                             \n                                                                                                  \n conv2d_4 (Conv2D)           (None, 71, 71, 192)          138240    ['activation_3[0][0]']        \n                                                                                                  \n batch_normalization_4 (Bat  (None, 71, 71, 192)          576       ['conv2d_4[0][0]']            \n chNormalization)                                                                                 \n                                                                                                  \n activation_4 (Activation)   (None, 71, 71, 192)          0         ['batch_normalization_4[0][0]'\n                                                                    ]                             \n                                                                                                  \n max_pooling2d_1 (MaxPoolin  (None, 35, 35, 192)          0         ['activation_4[0][0]']        \n g2D)                                                                                             \n                                                                                                  \n conv2d_8 (Conv2D)           (None, 35, 35, 64)           12288     ['max_pooling2d_1[0][0]']     \n                                                                                                  \n batch_normalization_8 (Bat  (None, 35, 35, 64)           192       ['conv2d_8[0][0]']            \n chNormalization)                                                                                 \n                                                                                                  \n activation_8 (Activation)   (None, 35, 35, 64)           0         ['batch_normalization_8[0][0]'\n                                                                    ]                             \n                                                                                                  \n conv2d_6 (Conv2D)           (None, 35, 35, 48)           9216      ['max_pooling2d_1[0][0]']     \n                                                                                                  \n conv2d_9 (Conv2D)           (None, 35, 35, 96)           55296     ['activation_8[0][0]']        \n                                                                                                  \n batch_normalization_6 (Bat  (None, 35, 35, 48)           144       ['conv2d_6[0][0]']            \n chNormalization)                                                                                 \n                                                                                                  \n batch_normalization_9 (Bat  (None, 35, 35, 96)           288       ['conv2d_9[0][0]']            \n chNormalization)                                                                                 \n                                                                                                  \n activation_6 (Activation)   (None, 35, 35, 48)           0         ['batch_normalization_6[0][0]'\n                                                                    ]                             \n                                                                                                  \n activation_9 (Activation)   (None, 35, 35, 96)           0         ['batch_normalization_9[0][0]'\n                                                                    ]                             \n                                                                                                  \n average_pooling2d (Average  (None, 35, 35, 192)          0         ['max_pooling2d_1[0][0]']     \n Pooling2D)                                                                                       \n                                                                                                  \n conv2d_5 (Conv2D)           (None, 35, 35, 64)           12288     ['max_pooling2d_1[0][0]']     \n                                                                                                  \n conv2d_7 (Conv2D)           (None, 35, 35, 64)           76800     ['activation_6[0][0]']        \n                                                                                                  \n conv2d_10 (Conv2D)          (None, 35, 35, 96)           82944     ['activation_9[0][0]']        \n                                                                                                  \n conv2d_11 (Conv2D)          (None, 35, 35, 32)           6144      ['average_pooling2d[0][0]']   \n                                                                                                  \n batch_normalization_5 (Bat  (None, 35, 35, 64)           192       ['conv2d_5[0][0]']            \n chNormalization)                                                                                 \n                                                                                                  \n batch_normalization_7 (Bat  (None, 35, 35, 64)           192       ['conv2d_7[0][0]']            \n chNormalization)                                                                                 \n                                                                                                  \n batch_normalization_10 (Ba  (None, 35, 35, 96)           288       ['conv2d_10[0][0]']           \n tchNormalization)                                                                                \n                                                                                                  \n batch_normalization_11 (Ba  (None, 35, 35, 32)           96        ['conv2d_11[0][0]']           \n tchNormalization)                                                                                \n                                                                                                  \n activation_5 (Activation)   (None, 35, 35, 64)           0         ['batch_normalization_5[0][0]'\n                                                                    ]                             \n                                                                                                  \n activation_7 (Activation)   (None, 35, 35, 64)           0         ['batch_normalization_7[0][0]'\n                                                                    ]                             \n                                                                                                  \n activation_10 (Activation)  (None, 35, 35, 96)           0         ['batch_normalization_10[0][0]\n                                                                    ']                            \n                                                                                                  \n activation_11 (Activation)  (None, 35, 35, 32)           0         ['batch_normalization_11[0][0]\n                                                                    ']                            \n                                                                                                  \n mixed0 (Concatenate)        (None, 35, 35, 256)          0         ['activation_5[0][0]',        \n                                                                     'activation_7[0][0]',        \n                                                                     'activation_10[0][0]',       \n                                                                     'activation_11[0][0]']       \n                                                                                                  \n conv2d_15 (Conv2D)          (None, 35, 35, 64)           16384     ['mixed0[0][0]']              \n                                                                                                  \n batch_normalization_15 (Ba  (None, 35, 35, 64)           192       ['conv2d_15[0][0]']           \n tchNormalization)                                                                                \n                                                                                                  \n activation_15 (Activation)  (None, 35, 35, 64)           0         ['batch_normalization_15[0][0]\n                                                                    ']                            \n                                                                                                  \n conv2d_13 (Conv2D)          (None, 35, 35, 48)           12288     ['mixed0[0][0]']              \n                                                                                                  \n conv2d_16 (Conv2D)          (None, 35, 35, 96)           55296     ['activation_15[0][0]']       \n                                                                                                  \n batch_normalization_13 (Ba  (None, 35, 35, 48)           144       ['conv2d_13[0][0]']           \n tchNormalization)                                                                                \n                                                                                                  \n batch_normalization_16 (Ba  (None, 35, 35, 96)           288       ['conv2d_16[0][0]']           \n tchNormalization)                                                                                \n                                                                                                  \n activation_13 (Activation)  (None, 35, 35, 48)           0         ['batch_normalization_13[0][0]\n                                                                    ']                            \n                                                                                                  \n activation_16 (Activation)  (None, 35, 35, 96)           0         ['batch_normalization_16[0][0]\n                                                                    ']                            \n                                                                                                  \n average_pooling2d_1 (Avera  (None, 35, 35, 256)          0         ['mixed0[0][0]']              \n gePooling2D)                                                                                     \n                                                                                                  \n conv2d_12 (Conv2D)          (None, 35, 35, 64)           16384     ['mixed0[0][0]']              \n                                                                                                  \n conv2d_14 (Conv2D)          (None, 35, 35, 64)           76800     ['activation_13[0][0]']       \n                                                                                                  \n conv2d_17 (Conv2D)          (None, 35, 35, 96)           82944     ['activation_16[0][0]']       \n                                                                                                  \n conv2d_18 (Conv2D)          (None, 35, 35, 64)           16384     ['average_pooling2d_1[0][0]'] \n                                                                                                  \n batch_normalization_12 (Ba  (None, 35, 35, 64)           192       ['conv2d_12[0][0]']           \n tchNormalization)                                                                                \n                                                                                                  \n batch_normalization_14 (Ba  (None, 35, 35, 64)           192       ['conv2d_14[0][0]']           \n tchNormalization)                                                                                \n                                                                                                  \n batch_normalization_17 (Ba  (None, 35, 35, 96)           288       ['conv2d_17[0][0]']           \n tchNormalization)                                                                                \n                                                                                                  \n batch_normalization_18 (Ba  (None, 35, 35, 64)           192       ['conv2d_18[0][0]']           \n tchNormalization)                                                                                \n                                                                                                  \n activation_12 (Activation)  (None, 35, 35, 64)           0         ['batch_normalization_12[0][0]\n                                                                    ']                            \n                                                                                                  \n activation_14 (Activation)  (None, 35, 35, 64)           0         ['batch_normalization_14[0][0]\n                                                                    ']                            \n                                                                                                  \n activation_17 (Activation)  (None, 35, 35, 96)           0         ['batch_normalization_17[0][0]\n                                                                    ']                            \n                                                                                                  \n activation_18 (Activation)  (None, 35, 35, 64)           0         ['batch_normalization_18[0][0]\n                                                                    ']                            \n                                                                                                  \n mixed1 (Concatenate)        (None, 35, 35, 288)          0         ['activation_12[0][0]',       \n                                                                     'activation_14[0][0]',       \n                                                                     'activation_17[0][0]',       \n                                                                     'activation_18[0][0]']       \n                                                                                                  \n conv2d_22 (Conv2D)          (None, 35, 35, 64)           18432     ['mixed1[0][0]']              \n                                                                                                  \n batch_normalization_22 (Ba  (None, 35, 35, 64)           192       ['conv2d_22[0][0]']           \n tchNormalization)                                                                                \n                                                                                                  \n activation_22 (Activation)  (None, 35, 35, 64)           0         ['batch_normalization_22[0][0]\n                                                                    ']                            \n                                                                                                  \n conv2d_20 (Conv2D)          (None, 35, 35, 48)           13824     ['mixed1[0][0]']              \n                                                                                                  \n conv2d_23 (Conv2D)          (None, 35, 35, 96)           55296     ['activation_22[0][0]']       \n                                                                                                  \n batch_normalization_20 (Ba  (None, 35, 35, 48)           144       ['conv2d_20[0][0]']           \n tchNormalization)                                                                                \n                                                                                                  \n batch_normalization_23 (Ba  (None, 35, 35, 96)           288       ['conv2d_23[0][0]']           \n tchNormalization)                                                                                \n                                                                                                  \n activation_20 (Activation)  (None, 35, 35, 48)           0         ['batch_normalization_20[0][0]\n                                                                    ']                            \n                                                                                                  \n activation_23 (Activation)  (None, 35, 35, 96)           0         ['batch_normalization_23[0][0]\n                                                                    ']                            \n                                                                                                  \n average_pooling2d_2 (Avera  (None, 35, 35, 288)          0         ['mixed1[0][0]']              \n gePooling2D)                                                                                     \n                                                                                                  \n conv2d_19 (Conv2D)          (None, 35, 35, 64)           18432     ['mixed1[0][0]']              \n                                                                                                  \n conv2d_21 (Conv2D)          (None, 35, 35, 64)           76800     ['activation_20[0][0]']       \n                                                                                                  \n conv2d_24 (Conv2D)          (None, 35, 35, 96)           82944     ['activation_23[0][0]']       \n                                                                                                  \n conv2d_25 (Conv2D)          (None, 35, 35, 64)           18432     ['average_pooling2d_2[0][0]'] \n                                                                                                  \n batch_normalization_19 (Ba  (None, 35, 35, 64)           192       ['conv2d_19[0][0]']           \n tchNormalization)                                                                                \n                                                                                                  \n batch_normalization_21 (Ba  (None, 35, 35, 64)           192       ['conv2d_21[0][0]']           \n tchNormalization)                                                                                \n                                                                                                  \n batch_normalization_24 (Ba  (None, 35, 35, 96)           288       ['conv2d_24[0][0]']           \n tchNormalization)                                                                                \n                                                                                                  \n batch_normalization_25 (Ba  (None, 35, 35, 64)           192       ['conv2d_25[0][0]']           \n tchNormalization)                                                                                \n                                                                                                  \n activation_19 (Activation)  (None, 35, 35, 64)           0         ['batch_normalization_19[0][0]\n                                                                    ']                            \n                                                                                                  \n activation_21 (Activation)  (None, 35, 35, 64)           0         ['batch_normalization_21[0][0]\n                                                                    ']                            \n                                                                                                  \n activation_24 (Activation)  (None, 35, 35, 96)           0         ['batch_normalization_24[0][0]\n                                                                    ']                            \n                                                                                                  \n activation_25 (Activation)  (None, 35, 35, 64)           0         ['batch_normalization_25[0][0]\n                                                                    ']                            \n                                                                                                  \n mixed2 (Concatenate)        (None, 35, 35, 288)          0         ['activation_19[0][0]',       \n                                                                     'activation_21[0][0]',       \n                                                                     'activation_24[0][0]',       \n                                                                     'activation_25[0][0]']       \n                                                                                                  \n conv2d_27 (Conv2D)          (None, 35, 35, 64)           18432     ['mixed2[0][0]']              \n                                                                                                  \n batch_normalization_27 (Ba  (None, 35, 35, 64)           192       ['conv2d_27[0][0]']           \n tchNormalization)                                                                                \n                                                                                                  \n activation_27 (Activation)  (None, 35, 35, 64)           0         ['batch_normalization_27[0][0]\n                                                                    ']                            \n                                                                                                  \n conv2d_28 (Conv2D)          (None, 35, 35, 96)           55296     ['activation_27[0][0]']       \n                                                                                                  \n batch_normalization_28 (Ba  (None, 35, 35, 96)           288       ['conv2d_28[0][0]']           \n tchNormalization)                                                                                \n                                                                                                  \n activation_28 (Activation)  (None, 35, 35, 96)           0         ['batch_normalization_28[0][0]\n                                                                    ']                            \n                                                                                                  \n conv2d_26 (Conv2D)          (None, 17, 17, 384)          995328    ['mixed2[0][0]']              \n                                                                                                  \n conv2d_29 (Conv2D)          (None, 17, 17, 96)           82944     ['activation_28[0][0]']       \n                                                                                                  \n batch_normalization_26 (Ba  (None, 17, 17, 384)          1152      ['conv2d_26[0][0]']           \n tchNormalization)                                                                                \n                                                                                                  \n batch_normalization_29 (Ba  (None, 17, 17, 96)           288       ['conv2d_29[0][0]']           \n tchNormalization)                                                                                \n                                                                                                  \n activation_26 (Activation)  (None, 17, 17, 384)          0         ['batch_normalization_26[0][0]\n                                                                    ']                            \n                                                                                                  \n activation_29 (Activation)  (None, 17, 17, 96)           0         ['batch_normalization_29[0][0]\n                                                                    ']                            \n                                                                                                  \n max_pooling2d_2 (MaxPoolin  (None, 17, 17, 288)          0         ['mixed2[0][0]']              \n g2D)                                                                                             \n                                                                                                  \n mixed3 (Concatenate)        (None, 17, 17, 768)          0         ['activation_26[0][0]',       \n                                                                     'activation_29[0][0]',       \n                                                                     'max_pooling2d_2[0][0]']     \n                                                                                                  \n conv2d_34 (Conv2D)          (None, 17, 17, 128)          98304     ['mixed3[0][0]']              \n                                                                                                  \n batch_normalization_34 (Ba  (None, 17, 17, 128)          384       ['conv2d_34[0][0]']           \n tchNormalization)                                                                                \n                                                                                                  \n activation_34 (Activation)  (None, 17, 17, 128)          0         ['batch_normalization_34[0][0]\n                                                                    ']                            \n                                                                                                  \n conv2d_35 (Conv2D)          (None, 17, 17, 128)          114688    ['activation_34[0][0]']       \n                                                                                                  \n batch_normalization_35 (Ba  (None, 17, 17, 128)          384       ['conv2d_35[0][0]']           \n tchNormalization)                                                                                \n                                                                                                  \n activation_35 (Activation)  (None, 17, 17, 128)          0         ['batch_normalization_35[0][0]\n                                                                    ']                            \n                                                                                                  \n conv2d_31 (Conv2D)          (None, 17, 17, 128)          98304     ['mixed3[0][0]']              \n                                                                                                  \n conv2d_36 (Conv2D)          (None, 17, 17, 128)          114688    ['activation_35[0][0]']       \n                                                                                                  \n batch_normalization_31 (Ba  (None, 17, 17, 128)          384       ['conv2d_31[0][0]']           \n tchNormalization)                                                                                \n                                                                                                  \n batch_normalization_36 (Ba  (None, 17, 17, 128)          384       ['conv2d_36[0][0]']           \n tchNormalization)                                                                                \n                                                                                                  \n activation_31 (Activation)  (None, 17, 17, 128)          0         ['batch_normalization_31[0][0]\n                                                                    ']                            \n                                                                                                  \n activation_36 (Activation)  (None, 17, 17, 128)          0         ['batch_normalization_36[0][0]\n                                                                    ']                            \n                                                                                                  \n conv2d_32 (Conv2D)          (None, 17, 17, 128)          114688    ['activation_31[0][0]']       \n                                                                                                  \n conv2d_37 (Conv2D)          (None, 17, 17, 128)          114688    ['activation_36[0][0]']       \n                                                                                                  \n batch_normalization_32 (Ba  (None, 17, 17, 128)          384       ['conv2d_32[0][0]']           \n tchNormalization)                                                                                \n                                                                                                  \n batch_normalization_37 (Ba  (None, 17, 17, 128)          384       ['conv2d_37[0][0]']           \n tchNormalization)                                                                                \n                                                                                                  \n activation_32 (Activation)  (None, 17, 17, 128)          0         ['batch_normalization_32[0][0]\n                                                                    ']                            \n                                                                                                  \n activation_37 (Activation)  (None, 17, 17, 128)          0         ['batch_normalization_37[0][0]\n                                                                    ']                            \n                                                                                                  \n average_pooling2d_3 (Avera  (None, 17, 17, 768)          0         ['mixed3[0][0]']              \n gePooling2D)                                                                                     \n                                                                                                  \n conv2d_30 (Conv2D)          (None, 17, 17, 192)          147456    ['mixed3[0][0]']              \n                                                                                                  \n conv2d_33 (Conv2D)          (None, 17, 17, 192)          172032    ['activation_32[0][0]']       \n                                                                                                  \n conv2d_38 (Conv2D)          (None, 17, 17, 192)          172032    ['activation_37[0][0]']       \n                                                                                                  \n conv2d_39 (Conv2D)          (None, 17, 17, 192)          147456    ['average_pooling2d_3[0][0]'] \n                                                                                                  \n batch_normalization_30 (Ba  (None, 17, 17, 192)          576       ['conv2d_30[0][0]']           \n tchNormalization)                                                                                \n                                                                                                  \n batch_normalization_33 (Ba  (None, 17, 17, 192)          576       ['conv2d_33[0][0]']           \n tchNormalization)                                                                                \n                                                                                                  \n batch_normalization_38 (Ba  (None, 17, 17, 192)          576       ['conv2d_38[0][0]']           \n tchNormalization)                                                                                \n                                                                                                  \n batch_normalization_39 (Ba  (None, 17, 17, 192)          576       ['conv2d_39[0][0]']           \n tchNormalization)                                                                                \n                                                                                                  \n activation_30 (Activation)  (None, 17, 17, 192)          0         ['batch_normalization_30[0][0]\n                                                                    ']                            \n                                                                                                  \n activation_33 (Activation)  (None, 17, 17, 192)          0         ['batch_normalization_33[0][0]\n                                                                    ']                            \n                                                                                                  \n activation_38 (Activation)  (None, 17, 17, 192)          0         ['batch_normalization_38[0][0]\n                                                                    ']                            \n                                                                                                  \n activation_39 (Activation)  (None, 17, 17, 192)          0         ['batch_normalization_39[0][0]\n                                                                    ']                            \n                                                                                                  \n mixed4 (Concatenate)        (None, 17, 17, 768)          0         ['activation_30[0][0]',       \n                                                                     'activation_33[0][0]',       \n                                                                     'activation_38[0][0]',       \n                                                                     'activation_39[0][0]']       \n                                                                                                  \n conv2d_44 (Conv2D)          (None, 17, 17, 160)          122880    ['mixed4[0][0]']              \n                                                                                                  \n batch_normalization_44 (Ba  (None, 17, 17, 160)          480       ['conv2d_44[0][0]']           \n tchNormalization)                                                                                \n                                                                                                  \n activation_44 (Activation)  (None, 17, 17, 160)          0         ['batch_normalization_44[0][0]\n                                                                    ']                            \n                                                                                                  \n conv2d_45 (Conv2D)          (None, 17, 17, 160)          179200    ['activation_44[0][0]']       \n                                                                                                  \n batch_normalization_45 (Ba  (None, 17, 17, 160)          480       ['conv2d_45[0][0]']           \n tchNormalization)                                                                                \n                                                                                                  \n activation_45 (Activation)  (None, 17, 17, 160)          0         ['batch_normalization_45[0][0]\n                                                                    ']                            \n                                                                                                  \n conv2d_41 (Conv2D)          (None, 17, 17, 160)          122880    ['mixed4[0][0]']              \n                                                                                                  \n conv2d_46 (Conv2D)          (None, 17, 17, 160)          179200    ['activation_45[0][0]']       \n                                                                                                  \n batch_normalization_41 (Ba  (None, 17, 17, 160)          480       ['conv2d_41[0][0]']           \n tchNormalization)                                                                                \n                                                                                                  \n batch_normalization_46 (Ba  (None, 17, 17, 160)          480       ['conv2d_46[0][0]']           \n tchNormalization)                                                                                \n                                                                                                  \n activation_41 (Activation)  (None, 17, 17, 160)          0         ['batch_normalization_41[0][0]\n                                                                    ']                            \n                                                                                                  \n activation_46 (Activation)  (None, 17, 17, 160)          0         ['batch_normalization_46[0][0]\n                                                                    ']                            \n                                                                                                  \n conv2d_42 (Conv2D)          (None, 17, 17, 160)          179200    ['activation_41[0][0]']       \n                                                                                                  \n conv2d_47 (Conv2D)          (None, 17, 17, 160)          179200    ['activation_46[0][0]']       \n                                                                                                  \n batch_normalization_42 (Ba  (None, 17, 17, 160)          480       ['conv2d_42[0][0]']           \n tchNormalization)                                                                                \n                                                                                                  \n batch_normalization_47 (Ba  (None, 17, 17, 160)          480       ['conv2d_47[0][0]']           \n tchNormalization)                                                                                \n                                                                                                  \n activation_42 (Activation)  (None, 17, 17, 160)          0         ['batch_normalization_42[0][0]\n                                                                    ']                            \n                                                                                                  \n activation_47 (Activation)  (None, 17, 17, 160)          0         ['batch_normalization_47[0][0]\n                                                                    ']                            \n                                                                                                  \n average_pooling2d_4 (Avera  (None, 17, 17, 768)          0         ['mixed4[0][0]']              \n gePooling2D)                                                                                     \n                                                                                                  \n conv2d_40 (Conv2D)          (None, 17, 17, 192)          147456    ['mixed4[0][0]']              \n                                                                                                  \n conv2d_43 (Conv2D)          (None, 17, 17, 192)          215040    ['activation_42[0][0]']       \n                                                                                                  \n conv2d_48 (Conv2D)          (None, 17, 17, 192)          215040    ['activation_47[0][0]']       \n                                                                                                  \n conv2d_49 (Conv2D)          (None, 17, 17, 192)          147456    ['average_pooling2d_4[0][0]'] \n                                                                                                  \n batch_normalization_40 (Ba  (None, 17, 17, 192)          576       ['conv2d_40[0][0]']           \n tchNormalization)                                                                                \n                                                                                                  \n batch_normalization_43 (Ba  (None, 17, 17, 192)          576       ['conv2d_43[0][0]']           \n tchNormalization)                                                                                \n                                                                                                  \n batch_normalization_48 (Ba  (None, 17, 17, 192)          576       ['conv2d_48[0][0]']           \n tchNormalization)                                                                                \n                                                                                                  \n batch_normalization_49 (Ba  (None, 17, 17, 192)          576       ['conv2d_49[0][0]']           \n tchNormalization)                                                                                \n                                                                                                  \n activation_40 (Activation)  (None, 17, 17, 192)          0         ['batch_normalization_40[0][0]\n                                                                    ']                            \n                                                                                                  \n activation_43 (Activation)  (None, 17, 17, 192)          0         ['batch_normalization_43[0][0]\n                                                                    ']                            \n                                                                                                  \n activation_48 (Activation)  (None, 17, 17, 192)          0         ['batch_normalization_48[0][0]\n                                                                    ']                            \n                                                                                                  \n activation_49 (Activation)  (None, 17, 17, 192)          0         ['batch_normalization_49[0][0]\n                                                                    ']                            \n                                                                                                  \n mixed5 (Concatenate)        (None, 17, 17, 768)          0         ['activation_40[0][0]',       \n                                                                     'activation_43[0][0]',       \n                                                                     'activation_48[0][0]',       \n                                                                     'activation_49[0][0]']       \n                                                                                                  \n conv2d_54 (Conv2D)          (None, 17, 17, 160)          122880    ['mixed5[0][0]']              \n                                                                                                  \n batch_normalization_54 (Ba  (None, 17, 17, 160)          480       ['conv2d_54[0][0]']           \n tchNormalization)                                                                                \n                                                                                                  \n activation_54 (Activation)  (None, 17, 17, 160)          0         ['batch_normalization_54[0][0]\n                                                                    ']                            \n                                                                                                  \n conv2d_55 (Conv2D)          (None, 17, 17, 160)          179200    ['activation_54[0][0]']       \n                                                                                                  \n batch_normalization_55 (Ba  (None, 17, 17, 160)          480       ['conv2d_55[0][0]']           \n tchNormalization)                                                                                \n                                                                                                  \n activation_55 (Activation)  (None, 17, 17, 160)          0         ['batch_normalization_55[0][0]\n                                                                    ']                            \n                                                                                                  \n conv2d_51 (Conv2D)          (None, 17, 17, 160)          122880    ['mixed5[0][0]']              \n                                                                                                  \n conv2d_56 (Conv2D)          (None, 17, 17, 160)          179200    ['activation_55[0][0]']       \n                                                                                                  \n batch_normalization_51 (Ba  (None, 17, 17, 160)          480       ['conv2d_51[0][0]']           \n tchNormalization)                                                                                \n                                                                                                  \n batch_normalization_56 (Ba  (None, 17, 17, 160)          480       ['conv2d_56[0][0]']           \n tchNormalization)                                                                                \n                                                                                                  \n activation_51 (Activation)  (None, 17, 17, 160)          0         ['batch_normalization_51[0][0]\n                                                                    ']                            \n                                                                                                  \n activation_56 (Activation)  (None, 17, 17, 160)          0         ['batch_normalization_56[0][0]\n                                                                    ']                            \n                                                                                                  \n conv2d_52 (Conv2D)          (None, 17, 17, 160)          179200    ['activation_51[0][0]']       \n                                                                                                  \n conv2d_57 (Conv2D)          (None, 17, 17, 160)          179200    ['activation_56[0][0]']       \n                                                                                                  \n batch_normalization_52 (Ba  (None, 17, 17, 160)          480       ['conv2d_52[0][0]']           \n tchNormalization)                                                                                \n                                                                                                  \n batch_normalization_57 (Ba  (None, 17, 17, 160)          480       ['conv2d_57[0][0]']           \n tchNormalization)                                                                                \n                                                                                                  \n activation_52 (Activation)  (None, 17, 17, 160)          0         ['batch_normalization_52[0][0]\n                                                                    ']                            \n                                                                                                  \n activation_57 (Activation)  (None, 17, 17, 160)          0         ['batch_normalization_57[0][0]\n                                                                    ']                            \n                                                                                                  \n average_pooling2d_5 (Avera  (None, 17, 17, 768)          0         ['mixed5[0][0]']              \n gePooling2D)                                                                                     \n                                                                                                  \n conv2d_50 (Conv2D)          (None, 17, 17, 192)          147456    ['mixed5[0][0]']              \n                                                                                                  \n conv2d_53 (Conv2D)          (None, 17, 17, 192)          215040    ['activation_52[0][0]']       \n                                                                                                  \n conv2d_58 (Conv2D)          (None, 17, 17, 192)          215040    ['activation_57[0][0]']       \n                                                                                                  \n conv2d_59 (Conv2D)          (None, 17, 17, 192)          147456    ['average_pooling2d_5[0][0]'] \n                                                                                                  \n batch_normalization_50 (Ba  (None, 17, 17, 192)          576       ['conv2d_50[0][0]']           \n tchNormalization)                                                                                \n                                                                                                  \n batch_normalization_53 (Ba  (None, 17, 17, 192)          576       ['conv2d_53[0][0]']           \n tchNormalization)                                                                                \n                                                                                                  \n batch_normalization_58 (Ba  (None, 17, 17, 192)          576       ['conv2d_58[0][0]']           \n tchNormalization)                                                                                \n                                                                                                  \n batch_normalization_59 (Ba  (None, 17, 17, 192)          576       ['conv2d_59[0][0]']           \n tchNormalization)                                                                                \n                                                                                                  \n activation_50 (Activation)  (None, 17, 17, 192)          0         ['batch_normalization_50[0][0]\n                                                                    ']                            \n                                                                                                  \n activation_53 (Activation)  (None, 17, 17, 192)          0         ['batch_normalization_53[0][0]\n                                                                    ']                            \n                                                                                                  \n activation_58 (Activation)  (None, 17, 17, 192)          0         ['batch_normalization_58[0][0]\n                                                                    ']                            \n                                                                                                  \n activation_59 (Activation)  (None, 17, 17, 192)          0         ['batch_normalization_59[0][0]\n                                                                    ']                            \n                                                                                                  \n mixed6 (Concatenate)        (None, 17, 17, 768)          0         ['activation_50[0][0]',       \n                                                                     'activation_53[0][0]',       \n                                                                     'activation_58[0][0]',       \n                                                                     'activation_59[0][0]']       \n                                                                                                  \n conv2d_64 (Conv2D)          (None, 17, 17, 192)          147456    ['mixed6[0][0]']              \n                                                                                                  \n batch_normalization_64 (Ba  (None, 17, 17, 192)          576       ['conv2d_64[0][0]']           \n tchNormalization)                                                                                \n                                                                                                  \n activation_64 (Activation)  (None, 17, 17, 192)          0         ['batch_normalization_64[0][0]\n                                                                    ']                            \n                                                                                                  \n conv2d_65 (Conv2D)          (None, 17, 17, 192)          258048    ['activation_64[0][0]']       \n                                                                                                  \n batch_normalization_65 (Ba  (None, 17, 17, 192)          576       ['conv2d_65[0][0]']           \n tchNormalization)                                                                                \n                                                                                                  \n activation_65 (Activation)  (None, 17, 17, 192)          0         ['batch_normalization_65[0][0]\n                                                                    ']                            \n                                                                                                  \n conv2d_61 (Conv2D)          (None, 17, 17, 192)          147456    ['mixed6[0][0]']              \n                                                                                                  \n conv2d_66 (Conv2D)          (None, 17, 17, 192)          258048    ['activation_65[0][0]']       \n                                                                                                  \n batch_normalization_61 (Ba  (None, 17, 17, 192)          576       ['conv2d_61[0][0]']           \n tchNormalization)                                                                                \n                                                                                                  \n batch_normalization_66 (Ba  (None, 17, 17, 192)          576       ['conv2d_66[0][0]']           \n tchNormalization)                                                                                \n                                                                                                  \n activation_61 (Activation)  (None, 17, 17, 192)          0         ['batch_normalization_61[0][0]\n                                                                    ']                            \n                                                                                                  \n activation_66 (Activation)  (None, 17, 17, 192)          0         ['batch_normalization_66[0][0]\n                                                                    ']                            \n                                                                                                  \n conv2d_62 (Conv2D)          (None, 17, 17, 192)          258048    ['activation_61[0][0]']       \n                                                                                                  \n conv2d_67 (Conv2D)          (None, 17, 17, 192)          258048    ['activation_66[0][0]']       \n                                                                                                  \n batch_normalization_62 (Ba  (None, 17, 17, 192)          576       ['conv2d_62[0][0]']           \n tchNormalization)                                                                                \n                                                                                                  \n batch_normalization_67 (Ba  (None, 17, 17, 192)          576       ['conv2d_67[0][0]']           \n tchNormalization)                                                                                \n                                                                                                  \n activation_62 (Activation)  (None, 17, 17, 192)          0         ['batch_normalization_62[0][0]\n                                                                    ']                            \n                                                                                                  \n activation_67 (Activation)  (None, 17, 17, 192)          0         ['batch_normalization_67[0][0]\n                                                                    ']                            \n                                                                                                  \n average_pooling2d_6 (Avera  (None, 17, 17, 768)          0         ['mixed6[0][0]']              \n gePooling2D)                                                                                     \n                                                                                                  \n conv2d_60 (Conv2D)          (None, 17, 17, 192)          147456    ['mixed6[0][0]']              \n                                                                                                  \n conv2d_63 (Conv2D)          (None, 17, 17, 192)          258048    ['activation_62[0][0]']       \n                                                                                                  \n conv2d_68 (Conv2D)          (None, 17, 17, 192)          258048    ['activation_67[0][0]']       \n                                                                                                  \n conv2d_69 (Conv2D)          (None, 17, 17, 192)          147456    ['average_pooling2d_6[0][0]'] \n                                                                                                  \n batch_normalization_60 (Ba  (None, 17, 17, 192)          576       ['conv2d_60[0][0]']           \n tchNormalization)                                                                                \n                                                                                                  \n batch_normalization_63 (Ba  (None, 17, 17, 192)          576       ['conv2d_63[0][0]']           \n tchNormalization)                                                                                \n                                                                                                  \n batch_normalization_68 (Ba  (None, 17, 17, 192)          576       ['conv2d_68[0][0]']           \n tchNormalization)                                                                                \n                                                                                                  \n batch_normalization_69 (Ba  (None, 17, 17, 192)          576       ['conv2d_69[0][0]']           \n tchNormalization)                                                                                \n                                                                                                  \n activation_60 (Activation)  (None, 17, 17, 192)          0         ['batch_normalization_60[0][0]\n                                                                    ']                            \n                                                                                                  \n activation_63 (Activation)  (None, 17, 17, 192)          0         ['batch_normalization_63[0][0]\n                                                                    ']                            \n                                                                                                  \n activation_68 (Activation)  (None, 17, 17, 192)          0         ['batch_normalization_68[0][0]\n                                                                    ']                            \n                                                                                                  \n activation_69 (Activation)  (None, 17, 17, 192)          0         ['batch_normalization_69[0][0]\n                                                                    ']                            \n                                                                                                  \n mixed7 (Concatenate)        (None, 17, 17, 768)          0         ['activation_60[0][0]',       \n                                                                     'activation_63[0][0]',       \n                                                                     'activation_68[0][0]',       \n                                                                     'activation_69[0][0]']       \n                                                                                                  \n conv2d_72 (Conv2D)          (None, 17, 17, 192)          147456    ['mixed7[0][0]']              \n                                                                                                  \n batch_normalization_72 (Ba  (None, 17, 17, 192)          576       ['conv2d_72[0][0]']           \n tchNormalization)                                                                                \n                                                                                                  \n activation_72 (Activation)  (None, 17, 17, 192)          0         ['batch_normalization_72[0][0]\n                                                                    ']                            \n                                                                                                  \n conv2d_73 (Conv2D)          (None, 17, 17, 192)          258048    ['activation_72[0][0]']       \n                                                                                                  \n batch_normalization_73 (Ba  (None, 17, 17, 192)          576       ['conv2d_73[0][0]']           \n tchNormalization)                                                                                \n                                                                                                  \n activation_73 (Activation)  (None, 17, 17, 192)          0         ['batch_normalization_73[0][0]\n                                                                    ']                            \n                                                                                                  \n conv2d_70 (Conv2D)          (None, 17, 17, 192)          147456    ['mixed7[0][0]']              \n                                                                                                  \n conv2d_74 (Conv2D)          (None, 17, 17, 192)          258048    ['activation_73[0][0]']       \n                                                                                                  \n batch_normalization_70 (Ba  (None, 17, 17, 192)          576       ['conv2d_70[0][0]']           \n tchNormalization)                                                                                \n                                                                                                  \n batch_normalization_74 (Ba  (None, 17, 17, 192)          576       ['conv2d_74[0][0]']           \n tchNormalization)                                                                                \n                                                                                                  \n activation_70 (Activation)  (None, 17, 17, 192)          0         ['batch_normalization_70[0][0]\n                                                                    ']                            \n                                                                                                  \n activation_74 (Activation)  (None, 17, 17, 192)          0         ['batch_normalization_74[0][0]\n                                                                    ']                            \n                                                                                                  \n conv2d_71 (Conv2D)          (None, 8, 8, 320)            552960    ['activation_70[0][0]']       \n                                                                                                  \n conv2d_75 (Conv2D)          (None, 8, 8, 192)            331776    ['activation_74[0][0]']       \n                                                                                                  \n batch_normalization_71 (Ba  (None, 8, 8, 320)            960       ['conv2d_71[0][0]']           \n tchNormalization)                                                                                \n                                                                                                  \n batch_normalization_75 (Ba  (None, 8, 8, 192)            576       ['conv2d_75[0][0]']           \n tchNormalization)                                                                                \n                                                                                                  \n activation_71 (Activation)  (None, 8, 8, 320)            0         ['batch_normalization_71[0][0]\n                                                                    ']                            \n                                                                                                  \n activation_75 (Activation)  (None, 8, 8, 192)            0         ['batch_normalization_75[0][0]\n                                                                    ']                            \n                                                                                                  \n max_pooling2d_3 (MaxPoolin  (None, 8, 8, 768)            0         ['mixed7[0][0]']              \n g2D)                                                                                             \n                                                                                                  \n mixed8 (Concatenate)        (None, 8, 8, 1280)           0         ['activation_71[0][0]',       \n                                                                     'activation_75[0][0]',       \n                                                                     'max_pooling2d_3[0][0]']     \n                                                                                                  \n conv2d_80 (Conv2D)          (None, 8, 8, 448)            573440    ['mixed8[0][0]']              \n                                                                                                  \n batch_normalization_80 (Ba  (None, 8, 8, 448)            1344      ['conv2d_80[0][0]']           \n tchNormalization)                                                                                \n                                                                                                  \n activation_80 (Activation)  (None, 8, 8, 448)            0         ['batch_normalization_80[0][0]\n                                                                    ']                            \n                                                                                                  \n conv2d_77 (Conv2D)          (None, 8, 8, 384)            491520    ['mixed8[0][0]']              \n                                                                                                  \n conv2d_81 (Conv2D)          (None, 8, 8, 384)            1548288   ['activation_80[0][0]']       \n                                                                                                  \n batch_normalization_77 (Ba  (None, 8, 8, 384)            1152      ['conv2d_77[0][0]']           \n tchNormalization)                                                                                \n                                                                                                  \n batch_normalization_81 (Ba  (None, 8, 8, 384)            1152      ['conv2d_81[0][0]']           \n tchNormalization)                                                                                \n                                                                                                  \n activation_77 (Activation)  (None, 8, 8, 384)            0         ['batch_normalization_77[0][0]\n                                                                    ']                            \n                                                                                                  \n activation_81 (Activation)  (None, 8, 8, 384)            0         ['batch_normalization_81[0][0]\n                                                                    ']                            \n                                                                                                  \n conv2d_78 (Conv2D)          (None, 8, 8, 384)            442368    ['activation_77[0][0]']       \n                                                                                                  \n conv2d_79 (Conv2D)          (None, 8, 8, 384)            442368    ['activation_77[0][0]']       \n                                                                                                  \n conv2d_82 (Conv2D)          (None, 8, 8, 384)            442368    ['activation_81[0][0]']       \n                                                                                                  \n conv2d_83 (Conv2D)          (None, 8, 8, 384)            442368    ['activation_81[0][0]']       \n                                                                                                  \n average_pooling2d_7 (Avera  (None, 8, 8, 1280)           0         ['mixed8[0][0]']              \n gePooling2D)                                                                                     \n                                                                                                  \n conv2d_76 (Conv2D)          (None, 8, 8, 320)            409600    ['mixed8[0][0]']              \n                                                                                                  \n batch_normalization_78 (Ba  (None, 8, 8, 384)            1152      ['conv2d_78[0][0]']           \n tchNormalization)                                                                                \n                                                                                                  \n batch_normalization_79 (Ba  (None, 8, 8, 384)            1152      ['conv2d_79[0][0]']           \n tchNormalization)                                                                                \n                                                                                                  \n batch_normalization_82 (Ba  (None, 8, 8, 384)            1152      ['conv2d_82[0][0]']           \n tchNormalization)                                                                                \n                                                                                                  \n batch_normalization_83 (Ba  (None, 8, 8, 384)            1152      ['conv2d_83[0][0]']           \n tchNormalization)                                                                                \n                                                                                                  \n conv2d_84 (Conv2D)          (None, 8, 8, 192)            245760    ['average_pooling2d_7[0][0]'] \n                                                                                                  \n batch_normalization_76 (Ba  (None, 8, 8, 320)            960       ['conv2d_76[0][0]']           \n tchNormalization)                                                                                \n                                                                                                  \n activation_78 (Activation)  (None, 8, 8, 384)            0         ['batch_normalization_78[0][0]\n                                                                    ']                            \n                                                                                                  \n activation_79 (Activation)  (None, 8, 8, 384)            0         ['batch_normalization_79[0][0]\n                                                                    ']                            \n                                                                                                  \n activation_82 (Activation)  (None, 8, 8, 384)            0         ['batch_normalization_82[0][0]\n                                                                    ']                            \n                                                                                                  \n activation_83 (Activation)  (None, 8, 8, 384)            0         ['batch_normalization_83[0][0]\n                                                                    ']                            \n                                                                                                  \n batch_normalization_84 (Ba  (None, 8, 8, 192)            576       ['conv2d_84[0][0]']           \n tchNormalization)                                                                                \n                                                                                                  \n activation_76 (Activation)  (None, 8, 8, 320)            0         ['batch_normalization_76[0][0]\n                                                                    ']                            \n                                                                                                  \n mixed9_0 (Concatenate)      (None, 8, 8, 768)            0         ['activation_78[0][0]',       \n                                                                     'activation_79[0][0]']       \n                                                                                                  \n concatenate (Concatenate)   (None, 8, 8, 768)            0         ['activation_82[0][0]',       \n                                                                     'activation_83[0][0]']       \n                                                                                                  \n activation_84 (Activation)  (None, 8, 8, 192)            0         ['batch_normalization_84[0][0]\n                                                                    ']                            \n                                                                                                  \n mixed9 (Concatenate)        (None, 8, 8, 2048)           0         ['activation_76[0][0]',       \n                                                                     'mixed9_0[0][0]',            \n                                                                     'concatenate[0][0]',         \n                                                                     'activation_84[0][0]']       \n                                                                                                  \n conv2d_89 (Conv2D)          (None, 8, 8, 448)            917504    ['mixed9[0][0]']              \n                                                                                                  \n batch_normalization_89 (Ba  (None, 8, 8, 448)            1344      ['conv2d_89[0][0]']           \n tchNormalization)                                                                                \n                                                                                                  \n activation_89 (Activation)  (None, 8, 8, 448)            0         ['batch_normalization_89[0][0]\n                                                                    ']                            \n                                                                                                  \n conv2d_86 (Conv2D)          (None, 8, 8, 384)            786432    ['mixed9[0][0]']              \n                                                                                                  \n conv2d_90 (Conv2D)          (None, 8, 8, 384)            1548288   ['activation_89[0][0]']       \n                                                                                                  \n batch_normalization_86 (Ba  (None, 8, 8, 384)            1152      ['conv2d_86[0][0]']           \n tchNormalization)                                                                                \n                                                                                                  \n batch_normalization_90 (Ba  (None, 8, 8, 384)            1152      ['conv2d_90[0][0]']           \n tchNormalization)                                                                                \n                                                                                                  \n activation_86 (Activation)  (None, 8, 8, 384)            0         ['batch_normalization_86[0][0]\n                                                                    ']                            \n                                                                                                  \n activation_90 (Activation)  (None, 8, 8, 384)            0         ['batch_normalization_90[0][0]\n                                                                    ']                            \n                                                                                                  \n conv2d_87 (Conv2D)          (None, 8, 8, 384)            442368    ['activation_86[0][0]']       \n                                                                                                  \n conv2d_88 (Conv2D)          (None, 8, 8, 384)            442368    ['activation_86[0][0]']       \n                                                                                                  \n conv2d_91 (Conv2D)          (None, 8, 8, 384)            442368    ['activation_90[0][0]']       \n                                                                                                  \n conv2d_92 (Conv2D)          (None, 8, 8, 384)            442368    ['activation_90[0][0]']       \n                                                                                                  \n average_pooling2d_8 (Avera  (None, 8, 8, 2048)           0         ['mixed9[0][0]']              \n gePooling2D)                                                                                     \n                                                                                                  \n conv2d_85 (Conv2D)          (None, 8, 8, 320)            655360    ['mixed9[0][0]']              \n                                                                                                  \n batch_normalization_87 (Ba  (None, 8, 8, 384)            1152      ['conv2d_87[0][0]']           \n tchNormalization)                                                                                \n                                                                                                  \n batch_normalization_88 (Ba  (None, 8, 8, 384)            1152      ['conv2d_88[0][0]']           \n tchNormalization)                                                                                \n                                                                                                  \n batch_normalization_91 (Ba  (None, 8, 8, 384)            1152      ['conv2d_91[0][0]']           \n tchNormalization)                                                                                \n                                                                                                  \n batch_normalization_92 (Ba  (None, 8, 8, 384)            1152      ['conv2d_92[0][0]']           \n tchNormalization)                                                                                \n                                                                                                  \n conv2d_93 (Conv2D)          (None, 8, 8, 192)            393216    ['average_pooling2d_8[0][0]'] \n                                                                                                  \n batch_normalization_85 (Ba  (None, 8, 8, 320)            960       ['conv2d_85[0][0]']           \n tchNormalization)                                                                                \n                                                                                                  \n activation_87 (Activation)  (None, 8, 8, 384)            0         ['batch_normalization_87[0][0]\n                                                                    ']                            \n                                                                                                  \n activation_88 (Activation)  (None, 8, 8, 384)            0         ['batch_normalization_88[0][0]\n                                                                    ']                            \n                                                                                                  \n activation_91 (Activation)  (None, 8, 8, 384)            0         ['batch_normalization_91[0][0]\n                                                                    ']                            \n                                                                                                  \n activation_92 (Activation)  (None, 8, 8, 384)            0         ['batch_normalization_92[0][0]\n                                                                    ']                            \n                                                                                                  \n batch_normalization_93 (Ba  (None, 8, 8, 192)            576       ['conv2d_93[0][0]']           \n tchNormalization)                                                                                \n                                                                                                  \n activation_85 (Activation)  (None, 8, 8, 320)            0         ['batch_normalization_85[0][0]\n                                                                    ']                            \n                                                                                                  \n mixed9_1 (Concatenate)      (None, 8, 8, 768)            0         ['activation_87[0][0]',       \n                                                                     'activation_88[0][0]']       \n                                                                                                  \n concatenate_1 (Concatenate  (None, 8, 8, 768)            0         ['activation_91[0][0]',       \n )                                                                   'activation_92[0][0]']       \n                                                                                                  \n activation_93 (Activation)  (None, 8, 8, 192)            0         ['batch_normalization_93[0][0]\n                                                                    ']                            \n                                                                                                  \n mixed10 (Concatenate)       (None, 8, 8, 2048)           0         ['activation_85[0][0]',       \n                                                                     'mixed9_1[0][0]',            \n                                                                     'concatenate_1[0][0]',       \n                                                                     'activation_93[0][0]']       \n                                                                                                  \n global_average_pooling2d (  (None, 2048)                 0         ['mixed10[0][0]']             \n GlobalAveragePooling2D)                                                                          \n                                                                                                  \n dense (Dense)               (None, 3)                    6147      ['global_average_pooling2d[0][\n                                                                    0]']                          \n                                                                                                  \n==================================================================================================\nTotal params: 21808931 (83.19 MB)\nTrainable params: 21774499 
…
